Model: "sequential_11"
┏━━━━━━━━━━━━━━━━━━━━━━━━━━━━━━━━━━━━━━┳━━━━━━━━━━━━━━━━━━━━━━━━━━━━━┳━━━━━━━━━━━━━━━━━┓
┃ Layer (type)                         ┃ Output Shape                ┃         Param # ┃
┡━━━━━━━━━━━━━━━━━━━━━━━━━━━━━━━━━━━━━━╇━━━━━━━━━━━━━━━━━━━━━━━━━━━━━╇━━━━━━━━━━━━━━━━━┩
│ lstm_22 (LSTM)                       │ (None, 12, 100)             │          41,600 │
├──────────────────────────────────────┼─────────────────────────────┼─────────────────┤
│ dropout_22 (Dropout)                 │ (None, 12, 100)             │               0 │
├──────────────────────────────────────┼─────────────────────────────┼─────────────────┤
│ lstm_23 (LSTM)                       │ (None, 100)                 │          80,400 │
├──────────────────────────────────────┼─────────────────────────────┼─────────────────┤
│ dropout_23 (Dropout)                 │ (None, 100)                 │               0 │
├──────────────────────────────────────┼─────────────────────────────┼─────────────────┤
│ dense_11 (Dense)                     │ (None, 1)                   │             101 │
└──────────────────────────────────────┴─────────────────────────────┴─────────────────┘
 Total params: 366,305 (1.40 MB)
 Trainable params: 122,101 (476.96 KB)
 Non-trainable params: 0 (0.00 B)
 Optimizer params: 244,204 (953.93 KB)

