Model: "sequential_10"
┏━━━━━━━━━━━━━━━━━━━━━━━━━━━━━━━━━━━━━━┳━━━━━━━━━━━━━━━━━━━━━━━━━━━━━┳━━━━━━━━━━━━━━━━━┓
┃ Layer (type)                         ┃ Output Shape                ┃         Param # ┃
┡━━━━━━━━━━━━━━━━━━━━━━━━━━━━━━━━━━━━━━╇━━━━━━━━━━━━━━━━━━━━━━━━━━━━━╇━━━━━━━━━━━━━━━━━┩
│ lstm_20 (LSTM)                       │ (None, 12, 100)             │          41,600 │
├──────────────────────────────────────┼─────────────────────────────┼─────────────────┤
│ dropout_20 (Dropout)                 │ (None, 12, 100)             │               0 │
├──────────────────────────────────────┼─────────────────────────────┼─────────────────┤
│ lstm_21 (LSTM)                       │ (None, 100)                 │          80,400 │
├──────────────────────────────────────┼─────────────────────────────┼─────────────────┤
│ dropout_21 (Dropout)                 │ (None, 100)                 │               0 │
├──────────────────────────────────────┼─────────────────────────────┼─────────────────┤
│ dense_10 (Dense)                     │ (None, 1)                   │             101 │
└──────────────────────────────────────┴─────────────────────────────┴─────────────────┘
 Total params: 366,305 (1.40 MB)
 Trainable params: 122,101 (476.96 KB)
 Non-trainable params: 0 (0.00 B)
 Optimizer params: 244,204 (953.93 KB)

